chatbot_app/data.pth (torch, 9343 bytes, 6 tensors)

l1.weight f4 [8, 148]
00000000: 0ce9 8dbd 3980 503e 566f 713e 0ae2 ba3e
00000010: b5f5 a5be f8de 8e3e 9fa3 b0bd c5ea ff3d
00000020: 51c8 d13c db01 02bd 81e3 39be 32f2 2fbf
00000030: 2829 973c c5a5 793e 9e31 923e 563a 463f
00000040: 3b1b a13e 490d 6d3d d565 0fbd 4930 8c3f
00000050: 2487 b43d 013d c5bd 68d7 02be 7f20 873e
00000060: 278f 033f 2cce 70be 8ffd fdbd a509 00be
00000070: ef9a 87be dd79 da3d ac1c 9a3e c045 973e
00000080: 134d a0bd c730 ad3e d9fb a3be b031 803d
00000090: 5342 863e 290b f1ba 8f33 8cbe 94d6 943e
000000a0: 202f 6abd 02d5 ad3e ac73 60be 6293 39bf
000000b0: d91a c4bd f381 833c 55b1 0fbe ce70 0ebf
000000c0: 5fdf 633e 502f 363e abed 7b3d fb53 28be
000000d0: 25ec 9a3f 6c30 cd3d efe5 9a3f 795e 9c3f
000000e0: 8af2 d23e 4b12 873f c92a 37bf 0ba4 d83d
000000f0: cb0c 97bd b170 9fbe 4cff c7bd 5347 efbe
00000100: 25d4 9fbe 424d 1fbf 013a ad3e 29cc 593e
00000110: 55ca 013f 015e 883d 06ae 88bd 4477 9cbe
00000120: 1d3b 03be 49dc c7bd 5619 af3e 48ac 1cbe
00000130: e673 26bc 306b 3a3e c63c 863c 82b0 e9bd
00000140: 796b 0ebe bbff fbbe b492 6e3e bfce 4cbe
00000150: 1430 56be 086a 023f b306 6b3c 9fbf adbe
00000160: bcdf 863e 265c 523d b2ec 18be d7bf a03d
00000170: 8b8b 60bd 754a 02be 16f0 a9ba bd77 803e
00000180: 70ef 923e b4dc ab3e 2a3e cbbe 0984 95bd
00000190: 9b3f a63e ef7f 9d3e 3c85 feb9 2d82 e5bd
000001a0: ec00 98be 06c8 e5be 2a14 af3e 3cb3 bc3e
000001b0: d018 e93e dab6 e03e 00f1 923f 57e6 db3c
000001c0: 3140 913e 408e 0d3f a0a7 4ebe 200c 80bd
000001d0: 87ab 4dbc 7a95 99bb de66 93bd bccf 773e
000001e0: 5e28 bfbd c99a 5c3d cde2 24bf df65 ff3c
000001f0: db55 cfbd 7ba0 8e3d 4f89 ea3e 7c4d 953d
00000200: 8beb e0bd ce28 923c 60dc 823d e867 a43d
00000210: 99f4 fe3d 1b1f 313f 11dd e53c 9b98 24bd
00000220: 5c67 e13c b180 7b3e 9abf 0dbe 33dc 613c
00000230: 4e13 a6bd 25db 993f 015b 8b3e 9c2c c8bd
00000240: 2276 753e a01c 6cbd 69bf 0e3f 8ded 413d
00000250: 047e 6bbe 36fe 2c3f 29a2 eabd 82a4 58bd
00000260: 3de3 2bbd 542b 663e c9d8 033f 2b03 ddbe
00000270: f5a0 013d cb74 89be f10b b3bd 2fbd d23e
00000280: 2d22 f63d 2380 a9bd ac98 2a3e d9b3 2c3e
00000290: b6f4 8e3e 8858 6e3e ef3d a1bd a430 e33e
000002a0: b1d3 483e 15a2 7dbe db94 853e d5c3 3b3e
000002b0: 95d6 f53e 4398 d73d fa3f b63e a3dc 31be
000002c0: 1799 00bd 3249 3a3e d1a9 ebbe ed85 1a3e
000002d0: 4e81 97bd 358c d6be 3950 88be 75ee 9abe
000002e0: cedf 2bbe 09f3 b7bd 25dd fc3d b048 ca3d
000002f0: 5478 073c ca22 3e3d 0498 f53e 5b5d 403f
00000300: 43b6 5e3b a010 d2be f151 e03e 2c57 963c
00000310: 914f d0bd e4d1 1fbe 2a97 bc3c 0400 d23e
00000320: 1c7c 31bd e54f 123f 9c67 26bc f148 1abb
00000330: 512e fdbe f36c afbd d8c8 40bf 2891 ac3d
00000340: 0245 4a3e 966c 303d 8c49 51be e133 1c3e
00000350: 165a 203d a5e5 c53e 4988 08bd 6331 7fbd
00000360: f607 81bd f85f 253e ab05 a33d ec9d a3be
00000370: e24b 5cbd be7a a4bd a461 e83e 8df3 14bd
00000380: e4bc 5abd 8437 833d 102d cbbd 82a6 62bd
00000390: 019c 87bd d5b4 033c 465d 9d3e 2fd5 d23d
000003a0: 0a76 373d 3c03 773e 50da afbd 96b6 4a3e
000003b0: 5538 be3e 05fa acbc 64bb 55bd 2501 c83e
000003c0: cf2d 94be 7a12 1a3f 5ee0 3b3e 0218 25be
000003d0: 5d15 d1bd 59b1 0ebe d678 e8be 9168 a5bd
000003e0: fa53 17be f59c f1bd c709 cf3d 163e d33e
000003f0: af0a 5a3d b23d 27bd 0130 dfbd c169 4fbe
-0.06929216 0.20361413 0.23577628 0.3650058 -0.32414022 0.27904487 -0.08624958 0.124959506
0.025608214 -0.03174005 -0.18153192 -0.68728936 0.018452242 0.24379642 0.2855348 0.77432764
0.31466088 0.057873998 -0.035009224 1.0952235 0.088148385 -0.09630776 -0.12777483 0.2639198
0.5139031 -0.23516148 -0.12401878 -0.12503679 -0.26485392 0.10667775 0.301 0.29545403
-0.07827201 0.33826277 -0.32028082 0.06259477 0.26222476 -0.0018390167 -0.27383086 0.2906996
-0.05717385 0.33951575 -0.21919125 -0.72490513 -0.09575433 0.016053176 -0.1403249 -0.55640876
0.22253178 0.17791486 0.061505955 -0.16438286 1.2103316 0.10019001 1.210142 1.2216331
0.41200668 1.0552458 -0.7154966 0.10578164 -0.07375487 -0.31140664 -0.09765491 -0.46734104
-0.3121654 -0.6222726 0.33833316 0.21269287 0.5069936 0.06658555 -0.06673817 -0.30559742
-0.12815519 -0.09758813 0.34199017 -0.15300095 -0.010159468 0.18204951 0.0163864 -0.11410619
-0.13908185 -0.49218544 0.2329815 -0.20000742 -0.20916778 0.5094304 0.014344859 -0.33935258
0.2634257 0.05135741 -0.14934042 0.078490905 -0.05482058 -0.12723716 -0.0012965228 0.25091353
0.286983 0.3356682 -0.39695865 -0.07300574 0.32470402 0.30761668 -0.00048545923 -0.1120647
-0.29688203 -0.44879168 0.3419507 0.36855495 0.45526743 0.43889505 1.1479797 0.026843233
0.28369287 0.5529518 -0.20181131 -0.06252313 -0.012553102 -0.0046870084 -0.07197355 0.24200338
-0.09333871 0.053858552 -0.6440857 0.031176506 -0.101237975 0.06964203 0.45807883 0.072901696
-0.10982426 0.017841723 0.063896894 0.08027631 0.12448997 0.6918809 0.028059514 -0.0401846
0.027515106 0.2456081 -0.13842621 0.01378541 -0.08109151 1.2020003 0.27217868 -0.097741336
0.23970845 -0.057644486 0.5576082 0.047345687 -0.2299729 0.67575395 -0.11456711 -0.052891262
-0.04196476 0.22477466 0.5150266 -0.4316648 0.03164764 -0.26846918 -0.08742512 0.4115996
0.12018237 -0.08276393 0.16659802 0.16865481 0.27921075 0.2327596 -0.07873141 0.44373047
0.19612004 -0.2476886 0.2609013 0.18336423 0.48015276 0.105270885 0.35595685 -0.17369322
-0.031395998 0.18191984 -0.46027997 0.15090151 -0.0739771 -0.41903844 -0.26623705 -0.30260053
-0.16784593 -0.08981902 0.123468675 0.09877145 0.008268435 0.046419896 0.4796754 0.7514245
0.0033983148 -0.4102831 0.43812516 0.018352114 -0.10171426 -0.1560741 0.0230213 0.41015637
-0.04333125 0.5715316 -0.010156538 -0.0023542012 -0.494494 -0.08565702 -0.75306463 0.08426124
0.19752887 0.043072306 -0.20438212 0.15254165 0.039148413 0.38651767 -0.033333097 -0.06230296
-0.063003466 0.1614989 0.079600655 -0.31956422 -0.053783305 -0.08031224 0.45386994 -0.03636508
-0.053402796 0.06407073 -0.09920704 -0.055334575 -0.06621552 0.008038719 0.30735224 0.10294568
0.044790305 0.24122328 -0.08586562 0.19796214 0.37152353 -0.021115312 -0.052180663 0.39063373
-0.289412 0.60184443 0.18347308 -0.1612244 -0.10209153 -0.1393484 -0.4540469 -0.08076585
-0.14778128 -0.11797515 0.10109287 0.41258305 0.053232845 -0.04083032 -0.10897828 -0.20255186

l1.bias f4 [8]
00000000: 5d03 ae3f 8847 1d3f 5caa 923f 52a1 533f
00000010: 2348 7c3f 4863 e73e 9220 093f 0091 c23e
1.3594776 0.61437273 1.145824 0.8266803 0.9854757 0.45192933 0.53565323 0.3800125

l2.weight f4 [8, 8]
00000000: 3e46 b3be eefc 483c 128c 55be 65f8 d23d
00000010: 2c1b 4f3c 5b5e 153e 0a78 c43b cabc 5abe
00000020: a25e 20bf 6f77 27bf 7c1f a73f f7f8 4b3f
00000030: f2ad 8abe c1b9 5bbd 0c03 a43f dfdd 993f
00000040: 0775 943f 8551 3e3f c028 8b3f 5e7d 66bf
00000050: 2cd5 c33f 1a6f 34bf 1be8 89be 1126 89be
00000060: f425 773e e88b 93bf 61e0 63be 536d b83e
00000070: 9e61 e63f 48c8 9ebf 5c74 993e e300 643f
00000080: 3f37 ea3e 8a1d 413e aedd 9f3f eefd 4b3f
00000090: 7d23 0c3f 9f3a 50bf b189 01be 7f9c 99bf
000000a0: 5679 063f d2c0 04be 6520 663e 258e 4e3f
000000b0: 61e6 adbf 46d1 a43e e2a5 abbf 9fb4 a43e
000000c0: 7a8f e63f 082b 5abf 5371 803e 86da 6c3f
000000d0: a5d3 fabe be1e 68bf 12d5 e6bc 0841 9d3e
000000e0: 10f8 7f3f 1ae8 ab3f 542e 213f 90bd 47be
000000f0: 0c7e c73f 2198 ce3f 78db 8cbf 1534 1d3f
-0.35014528 0.012267334 -0.20854214 0.10301284 0.012640756 0.14586775 0.005995755 -0.2136108
-0.626444 -0.65416616 1.3056483 0.79676765 -0.27085835 -0.053643946 1.281343 1.2020835
1.1598214 0.7434314 1.0871811 -0.90035045 1.529943 -0.7048203 -0.26934895 -0.26786855
0.24135572 -1.1527071 -0.22253563 0.36020908 1.799854 -1.2404871 0.29971588 0.89063853
0.45745274 0.18858925 1.2489526 0.7968434 0.5474165 -0.8133945 -0.12650181 -1.2000884
0.52528894 -0.1296418 0.22473295 0.80685645 -1.3585931 0.32190913 -1.3409998 0.32169053
1.8012536 -0.8522191 0.2508646 0.9252094 -0.48989597 -0.9067191 -0.028177772 0.30713677
0.9998789 1.3430207 0.62961316 -0.19505906 1.5585341 1.6140176 -1.1004477 0.61407596

l2.bias f4 [8]
00000000: 098f c6be 5ee8 a33c 7625 383f 00ab b7be
00000010: bb82 3b3f 3106 98be 48f0 473f d44b af3e
-0.38781002 0.020008262 0.7193216 -0.3587265 0.73246354 -0.29692224 0.78101015 0.3423754

l3.weight f4 [11, 8]
00000000: 5311 bbbe 9288 eb3d 5a91 44bf d652 8cbf
00000010: c067 453f b5da a2bf d4e5 943e 4b8f aebf
00000020: 2a8d 8d3e 70ba aebe 8d7b 243f a890 eebf
00000030: 6dcd d1bf 8382 b1bf 6193 5bbf e1b0 e73e
00000040: 56a0 74be ca9e b6bf b34d e63e 20cc 20bf
00000050: 9d9c 2c3f af42 c6bf b931 1a3f eec6 57be
00000060: baa3 73be 993f fc3d d97a 8cbf 90a9 843f
00000070: 106c 5dbf d394 30bf 591b 933e 374f 9abf
00000080: 6b09 93be c378 d5bf f9c4 8abf 5a76 f9be
00000090: 17e7 73bf ba08 7f3c 2ba2 63bf b14f 6f3f
000000a0: 1a08 553d 1651 543f 74c9 60bf b90a dfbf
000000b0: fc72 acbf e9ca 97bf 60ea 1dbe e495 0dbf
000000c0: c666 4cbd 140b 27bf 0b09 8fbf fe44 d9bf
000000d0: 8b56 97bf d472 313f 98a4 cc3e f4e4 263e
000000e0: 2d64 043e 8b3d c6be 8864 aabe 9ad3 f3bf
000000f0: e96c c73e 2649 433f 2358 253d eac5 08bf
00000100: 42b4 f93d 3539 febd 4ded f3bd 863a fbbf
00000110: 56a4 f83e 74f2 6abf b553 aebf 4ec5 273e
00000120: c7f1 d9bb 8d7a 03c0 8558 643f 7e53 7dc0
00000130: 8cf0 413f 6ebf 1bbf f039 e3bf 642a b33e
00000140: fc23 4b3e 8f18 1abe 8c57 9cbe 3a4d 78be
00000150: 7acb 2fbf 85f0 37bf e955 393d a72d c43d
-0.36536655 0.11500658 -0.7678429 -1.096278 0.77111435 -1.2722994 0.29081595 -1.363748
0.27646762 -0.34126616 0.64251024 -1.8637896 -1.6390816 -1.3867954 -0.8577176 0.45252135
-0.23889288 -1.4267209 0.44981155 -0.6281147 0.6742647 -1.54891 0.6023212 -0.2107198
-0.23792925 0.12316818 -1.097499 1.0364246 -0.86493015 -0.6897709 0.28731802 -1.2055424
-0.28718123 -1.6677479 -1.0841361 -0.48723108 -0.9527449 0.015566045 -0.88919324 0.93480974
0.05200968 0.8293623 -0.87807393 -1.7425147 -1.347259 -1.1858798 -0.15421438 -0.5530684
-0.0499027 -0.6525128 -1.1174635 -1.697418 -1.1823286 0.6931584 0.39969325 0.16298276
0.12928839 -0.3871883 -0.33279824 -1.9048951 0.3895028 0.7628349 0.040367257 -0.5342699
0.121925846 -0.12413255 -0.11910496 -1.9627235 0.48562878 -0.91776204 -1.3619295 0.1638386
-0.0066511366 -2.054355 0.8919757 -3.958221 0.7575767 -0.60838974 -1.7752056 0.3499328
0.19837946 -0.15048431 -0.30535543 -0.2424821 -0.68669856 -0.7185138 0.045247946 0.0957902

l3.bias f4 [11]
00000000: 5e44 a43e 208a e5be 7997 fe3d ff18 21be
00000010: 75d3 353f 7b9c 0b3f eb26 283d bffc cabe
00000020: e0e1 07be 9fcc cfbd 5cb8 c4be
0.3208341 -0.44831944 0.12431235 -0.15732192 0.7102578 0.54535645 0.04105274 -0.39645955
-0.13269758 -0.1014645 -0.38421905
